hw6/model.pth (torch, 49875 bytes, 21 tensors)

att_src f4 [1, 1, 16]
-0.0047145826 0.5391264 0.19079782 0.4567562 -0.45072764 0.3122689 0.46471843 0.27264085
-0.094313726 0.53528154 -0.27183855 0.18859561 -0.5898771 -0.44484398 -0.5371474 -0.46412334
00000000: c97c 9abb 3004 0a3f 8160 433e f3db e93e
00000010: c6c5 e6be b6e1 9f3e 93ef ed3e 9597 8b3e
00000020: 8e27 c1bd 3608 093f 6c2e 8bbe 351f 413e
00000030: 3002 17bf 97c2 e3be 7e82 09bf 93a1 edbe

att_dst f4 [1, 1, 16]
-0.22905834 -0.5136677 -0.39867213 -0.29347187 0.273157 0.54836863 0.3120382 -0.2549787
-0.35190213 0.31006378 -0.34992254 -0.48715383 -0.23289436 0.5408748 0.4794349 -0.49543852
00000000: 458e 6abe ba7f 03bf c11e ccbe f241 96be
00000010: 3cdb 8b3e e361 0c3f 79c3 9f3e 918c 82be
00000020: 842c b4be aec0 9e3e 0c29 b3be 3a6c f9be
00000030: dc7b 6ebe c576 0a3f 7e78 f53e 1eaa fdbe

bias f4 [16]
0.18888101 0.0051592174 -0.09733417 -0.036361627 -0.021966387 -0.17469592 -0.06210659 0.010383072
-0.0076740836 -0.023349196 0.046586275 -0.002530851 -0.0014369095 0.024656408 -0.06325136 0.0063296095
00000000: 066a 413e a70e a93b 2357 c7bd eeef 14bd
00000010: daf2 b3bc 7de3 32be 7b63 7ebd c31d 2a3c
00000020: e176 fbbb d046 bfbc 40d1 3e3d a2dc 25bb
00000030: af56 bcba 3cfc c93c ee89 81bd 9d68 cf3b

weight f4 [16, 10]
-0.16901769 -0.2706302 0.19129315 0.16187498 0.11591847 -0.4306359 -0.13976078 -0.16598584
0.014714753 0.43542662 -0.3309764 -0.0123625 0.17416126 0.25875166 -0.46695748 0.008429264
0.36913264 -0.32081726 0.28148064 -0.07837395 0.4145735 -0.4236264 0.07333517 0.3440532
0.34420568 -0.25205013 -0.4274832 0.0013409528 -0.24191006 0.28786138 -0.25018272 0.03674099
-0.42589748 -0.011438315 0.41905347 0.23804334 0.18313912 -0.29168102 0.39129955 -0.2521875
0.43451586 -0.38508114 -0.22638716 -0.13980119 0.07396878 0.26901516 0.09309652 -0.16651991
-0.34472862 -0.11115284 -0.21390893 -0.29409143 0.28628376 0.05613186 -0.25101295 0.21540174
-0.32644126 -0.2903449 -0.059617963 0.30226406 0.25153315 -0.3287079 -0.34431446 0.14794818
-0.02938698 0.03720245 0.01196385 -0.35209 -0.0988625 -0.17132634 -0.051302124 0.29286194
-0.45023102 0.039529648 0.46724153 -0.4360606 0.14742173 0.4656331 0.2984826 0.27880418
-0.1785344 0.20314401 0.06472405 0.49563253 -0.46308792 0.2589188 -0.2815501 -0.4160913
0.45522404 0.1029945 -0.24939896 -0.45341888 -0.104191065 -0.11432972 -0.031710446 -0.15023917
0.12470544 0.30930522 -0.39743188 -0.19075732 0.36864802 -0.45830396 0.3833766 -0.095886044
0.12721774 -0.2463594 0.2429922 0.057547897 -0.15927778 0.41663054 -0.4266713 0.41263834
0.31010145 -0.08497499 -0.14258878 0.37056777 0.19654728 -0.43373534 -0.3809383 -0.48030737
-0.21365164 -0.07212976 0.18322112 0.28857648 -0.42916018 0.25478506 0.17199975 0.16710967
-0.4218087 -0.30733073 -0.072762184 0.23589765 -0.10264396 -0.14194643 0.039721854 0.05142376
-0.051162135 0.050508536 -0.23579685 0.40749535 0.0126950145 0.24111287 -0.38719177 -0.1377054
0.15885204 -0.30045712 0.026105832 -0.25049365 -0.1261441 0.037034772 -0.3845986 0.15814655
0.30936405 -0.40718442 -0.03415867 -0.09485159 -0.42244494 -0.090142034 0.4012393 0.071300864
00000000: f912 2dbe 0b90 8abe 5ae2 433e 8ec2 253e
00000010: aa66 ed3d 4f7c dcbe 731d 0fbe 31f8 29be
00000020: 2616 713c 3df0 de3e bd75 a9be 158c 4abc
00000030: 5457 323e 197b 843e 0d15 efbe e51a 0a3c
00000040: f4fe bc3e 2942 a4be 3b1e 903e 8682 a0bd
00000050: fa42 d43e 8fe5 d8be c030 963d be27 b03e
00000060: ba3b b03e b70c 81be 14df dabe e9c2 af3a
00000070: 45b7 77be 9162 933e f317 80be b87d 163d
00000080: 3c0f dabe c567 3bbc 2d8e d63e a2c1 733e
00000090: d288 3b3e 3757 95be 6a58 c83e b81e 81be
000000a0: dd78 de3e 5b29 c5be 09d2 67be 0b28 0fbe
000000b0: f27c 973d 5bbc 893e 63a9 be3d 3284 2abe
000000c0: 4580 b0be 1aa4 e3bd f10a 5bbe 2793 96be
000000d0: c993 923e 85ea 653d c584 80be 4692 5c3e
000000e0: 4f23 a7be 16a8 94be f731 74bd 5bc2 9a3e
000000f0: f4c8 803e 674c a8be fc49 b0be ba7f 173e
00000100: f7bc f0bc 9961 183d 0604 443c 2445 b4be
00000110: 6c78 cabd 2c70 2fbe 2d22 52bd 00f2 953e
00000120: ae84 e6be d7e9 213d 483a ef3e 5643 dfbe
00000130: b9f5 163e 7667 ee3e b6d2 983e 6cbf 8e3e
00000140: b9d1 36be fc04 503e 0b8e 843d 8cc3 fd3e
00000150: dc19 edbe 0191 843e 5627 90be eb09 d5be
00000160: 2013 e93e c8ee d23d 7162 7fbe 8526 e8be
00000170: 2062 d5bd b325 eabd d0e2 01bd 4cd8 19be
00000180: 9165 ff3d 415d 9e3e 317c cbbe e355 43be
00000190: 6fbf bc3e d1a6 eabe f049 c43e e75f c4bd
000001a0: 5e45 023e a345 7cbe f3d2 783e 58b7 6b3d
000001b0: b719 23be 9950 d53e a974 dabe 5545 d33e
000001c0: 9ec5 9e3e 5e07 aebd cb02 12be 0fbb bd3e
000001d0: b143 493e 8f12 debe 580a c3be d9ea f5be
000001e0: 7fc7 5abe c5b8 93bd 519e 3b3e 4cc0 933e
000001f0: e2ba dbbe 3073 823e b420 303e cc1e 2b3e
00000200: 4ff7 d7be 745a 9dbe 5704 95bd 278f 713e
00000210: ff36 d2bd 685a 11be 62b3 223d b8a1 523d
00000220: 638f 51bd 0ae2 4e3d bb74 71be 3ba3 d03e
00000230: c0fe 4f3c 4be6 763e 003e c6be a502 0dbe
00000240: 1caa 223e 84d5 99be e6db d53c b440 80be
00000250: eb2b 01be c6b1 173d 1cea c4be 2bf1 213e
00000260: f764 9e3e 7a7a d0be f6e9 0bbd 8d41 c2bd
00000270: b44a d8be 639c b8bd 3d6f cd3e 3006 923d

att_src f4 [1, 1, 32]
0.15191385 -0.06341819 0.045207623 -0.1659906 -0.38612297 0.26565388 0.08697044 0.22906592
-0.29275545 -0.18038258 0.38822734 0.20146497 -0.41647145 0.10413243 -0.27014777 0.41197664
0.11658477 0.23684175 -0.024363216 0.08481619 -0.09729153 0.41192815 0.23019278 0.37991
-0.33815002 0.37587583 0.118422635 0.111295745 -0.39846188 -0.37692085 0.35422117 0.14530446
00000000: 4e8f 1b3e 65e1 81bd a12b 393d 71f9 29be
00000010: e9b1 c5be c903 883e 8f1d b23d 4290 6a3e
00000020: 0be4 95be 36b6 38be bcc5 c63e d54c 4e3e
00000030: bf3b d5be 6243 d53d cf50 8abe 9aee d23e
00000040: ffc3 ee3d a586 723e 5e95 c7bc 1cb4 ad3d
00000050: c840 c7bd 3fe8 d23e a8b7 6b3e 9083 c23e
00000060: 0022 adbe cc72 c03e 9187 f23d 06ef e33d
00000070: 3203 ccbe c5fb c0be 7a5c b53e b1ca 143e

att_dst f4 [1, 1, 32]
0.2254827 0.08894402 0.17169225 -0.40711534 0.14613631 -0.07616979 -0.074128985 0.21241966
0.05762393 -0.031240793 -0.18197899 -0.18865454 -0.41115806 0.19224383 0.3113498 -0.103190325
0.17089474 0.31236514 0.28739646 -0.20135404 0.24987708 0.22570077 -0.021596534 0.03017645
-0.3327991 -0.15191145 0.22243369 0.25693405 -0.07673942 0.39501297 -0.33873633 0.39660877
00000000: f0e4 663e 4828 b63d 18d0 2f3e 6c71 d0be
00000010: c2a4 153e e8fe 9bbd f0d0 97bd 8a84 593e
00000020: 1207 6c3d b1ec ffbc b358 3abe a82e 41be
00000030: 4f83 d2be 91db 443e 3e69 9f3e 7355 d3bd
00000040: 08ff 2e3e 53ee 9f3e a125 933e c12f 4ebe
00000050: c7df 7f3e 1a1e 673e 37eb b0bc 9a34 f73c
00000060: a564 aabe ad8e 1bbe a8c5 633e dc8c 833e
00000070: 8f29 9dbd 243f ca3e d96e adbe 4e10 cb3e

bias f4 [32]
-0.09573409 -0.008946007 0.08503399 0.017731447 0.023967901 -0.03862065 0.035501245 -0.04501673
-0.041651014 -0.047882117 -0.033178814 0.04262794 -0.03205402 0.008553277 -0.009130234 0.086401306
-0.085471794 0.085351035 0.08885273 -0.073257715 0.002718275 0.048233133 0.0034351535 -0.0034298263
-0.025681064 -0.033480227 -0.03949474 -0.104279675 -0.022311965 0.096872196 0.018737905 -0.057814464
00000000: 3c10 c4bd 4692 12bc 4d26 ae3d 8a41 913c
00000010: 5558 c43c b030 1ebd c169 113d 7663 38bd
00000020: 419a 2abd 0a20 44bd 82e6 07bd a39a 2e3d
00000030: 134b 03bd 0b23 0c3c fa96 15bc 2bf3 b03d
00000040: d60b afbd 86cc ae3d 6cf8 b53d 2408 96bd
00000050: 1625 323b 1b90 453d 5020 613b f0c6 60bb
00000060: 1861 d2bc 9022 09bd 3dc5 21bd 9590 d5bd
00000070: 95c7 b6bc ee64 c63d 3c80 993c dcce 6cbd

weight f4 [32, 16]
0.2937869 -0.11908 0.3412993 -0.18804911 0.10857776 -0.21463294 -0.22951631 -0.044408787
0.20458734 0.11302688 -0.28455478 -0.27335167 0.29619065 0.3127665 -0.27854717 -0.040595092
-0.1415196 0.057748567 -0.29500422 0.12890616 0.09772283 0.2854814 0.3359759 0.11617355
-0.22956082 -0.34102994 -0.277385 0.09938699 -0.18733062 0.21161307 -0.008871349 0.2894847
-0.11547816 0.12074737 0.15244512 -0.14433874 -0.16171241 -0.1079749 0.15661165 -0.28241208
-0.21751824 0.07407765 -0.17355017 0.29689208 -0.20018175 0.34049785 0.13680528 -0.0012485677
0.29900974 0.2433495 -0.17471424 0.27980757 -0.036488846 -0.26067853 0.19225574 0.14068276
-0.006815028 -0.15156633 -0.094615184 0.14837939 -0.24915624 0.21213992 -0.3020994 -0.143733
-0.23098086 -0.07282756 -0.230104 0.24343695 -0.039969113 0.12041598 0.025725575 0.28449824
0.30782098 -0.17790371 -0.0075013903 0.23612529 0.09529837 0.034432903 -0.04618 0.34961846
0.001928329 0.06335575 0.2982481 0.34182906 0.26277894 0.17565753 0.34492946 0.20736234
-0.01451256 -0.21608469 -0.07472151 0.04224681 0.035181656 -0.32136294 0.2758859 0.1120149
-0.032959167 0.086054236 0.2708064 0.26077276 -0.12592283 -0.17600603 0.34254643 0.19317035
-0.21592289 -0.3224676 0.025877202 0.23898627 0.32482415 0.1396789 -0.36829016 -0.055871636
-0.30995333 0.0057025407 -0.13631575 0.08650246 -0.23168693 -0.18924892 0.062074304 -0.28544033
-0.2566324 -0.26493412 0.22824283 -0.33040643 0.34685636 0.2875371 -0.07167697 -0.116742745
0.13004082 0.1484071 0.017556636 -0.0074163056 -0.092987284 0.32663384 0.16788249 -0.061635796
-0.28386432 -0.22960383 0.19214043 0.0041892207 0.008893031 -0.00058756745 0.066763856 -0.048309788
0.012108753 0.052819166 0.21858324 -0.04091809 0.21417648 0.14942661 0.17607376 -0.23252295
0.2946395 0.21056132 0.124279924 -0.2644078 0.27495882 0.025045672 0.086788125 0.32613713
-0.26062107 -0.17845406 -0.2861557 0.26748797 0.11735856 -0.21674624 0.10053684 0.3387604
0.14170171 0.25110194 0.18958099 -0.2954355 -0.2758842 0.021204079 0.03890586 0.07652404
-0.378269 -0.15781483 -0.040763233 0.13489534 -0.27926472 -0.3748153 -0.14687018 -0.05320452
-0.19191757 -0.12739784 0.10870619 0.030327339 -0.25976703 -0.10020421 -0.07911081 -0.32798645
0.020211669 -0.20053343 -0.24290799 -0.09785687 -0.014518324 0.3473179 -0.09552896 0.2551451
-0.0036687374 0.23413455 -0.17599876 -0.14715868 -0.28722012 0.024235602 -0.07547527 0.05464896
0.25056526 -0.3152498 0.3209895 -0.020533917 -0.009876407 0.011375283 -0.19822371 -0.3029619
-0.29179138 0.24964549 -0.07297573 0.08008197 -0.0786093 0.2438537 -0.26171198 -0.058976498
0.30372497 -0.014086614 -0.11442358 0.08740435 -0.28433883 -0.06251166 -0.30708095 0.31621587
-0.16379683 -0.21511118 -0.32167357 -0.040597208 0.095408455 -0.24393341 -0.081981495 0.27910075
-0.14601932 -0.1741262 -0.123615496 -0.19067599 0.13029024 -0.19705084 -0.33562598 -0.04558997
-0.17705426 -0.33874124 -0.32401153 -0.2899122 -0.33959603 -0.16410315 -0.12636834 0.25240874
00000000: 3d6b 963e 37e0 f3bd c8be ae3e f28f 40be
00000010: 045e de3d bdc8 5bbe 5306 6bbe fde5 35bd
00000020: 587f 513e a37a e73d 2ab1 91be c0f4 8bbe
00000030: 4da6 973e ee22 a03e bc9d 8ebe 0a47 26bd
00000040: 84ea 10be c389 6c3d cb0a 97be faff 033e
00000050: e822 c83d 9e2a 923e 0805 ac3e 66ec ed3d
00000060: fe11 6bbe 7a9b aebe 6805 8ebe 688b cb3d
00000070: 99d3 3fbe 19b1 583e 2259 11bc 5737 943e
00000080: d07f ecbd 664a f73d 931a 1c3e 89cd 13be
00000090: f097 25be f221 ddbd ce5e 203e 5198 90be
000000a0: 1abd 5ebe 06b6 973d 23b7 31be 3d02 983e
000000b0: 72fc 4cbe bc55 ae3e af16 0c3e fba6 a3ba
000000c0: ce17 993e 9c30 793e 4ae8 32be f042 8f3e
000000d0: 5475 15bd a877 85be b0de 443e 240f 103e
000000e0: 9950 dfbb 3434 1bbe 9bc5 c1bd c4f0 173e
000000f0: d022 7fbe 353b 593e c6ac 9abe be2e 13be
00000100: 3f86 6cbe 9e26 95bd 62a0 6bbe 8947 793e
00000110: a7b6 23bd a79c f63d 71be d23c c1a9 913e
00000120: b69a 9d3e 642c 36be 39ce f5bb d4ca 713e
00000130: cb2b c33d 8409 0d3d 3d27 3dbd 3101 b33e
00000140: fcbf fc3a a9c0 813d fab3 983e 3804 af3e
00000150: f68a 863e 91df 333e 989a b03e cb56 543e
00000160: 17c6 6dbc 4e45 5dbe 9707 99bd fe0a 2d3d
00000170: a41a 103d af89 a4be eb40 8d3e 1168 e53d
00000180: 3100 07bd 343d b03d 23a7 8a3e 0284 853e
00000190: eaf1 00be ed3a 34be 3f62 af3e 73ce 453e
000001a0: e41a 5dbe 791a a5be 6dfc d33c d1b8 743e
000001b0: 5a4f a63e fc07 0f3e 8790 bcbe a8d9 64bd
000001c0: 34b2 9ebe 61dc ba3b 5b96 0bbe 3428 b13d
000001d0: 573f 6dbe 78ca 41be a041 7e3d 3c25 92be
000001e0: 5265 83be 72a5 87be 7db8 693e 082b a9be
000001f0: 2897 b13e 1038 933e 60cb 92bd d216 efbd
00000200: 6c29 053e 08f8 173e efd2 8f3c 7b04 f3bb
00000210: 1e70 bebd 8d3c a73e 63e9 2b3e d175 7cbd
00000220: aa56 91be 441d 6bbe 76c0 443e bb45 893b
00000230: 13b4 113c fc06 1aba 7dbb 883d 7ce0 45bd
00000240: cb63 463c e958 583d 49d4 5f3e ba99 27bd
00000250: 1451 5b3e 4a03 193e ae4c 343e 7f1a 6ebe
00000260: fdda 963e 639d 573e 7986 fe3d 7660 87be
00000270: 67c7 8c3e 952c cd3c f9bd b13d 72fb a63e
00000280: 2070 85be a9bc 36be 0083 92be 2ff4 883e
00000290: af59 f03d baf2 5dbe 42e6 cd3d 0172 ad3e
000002a0: 411a 113e 6f90 803e 8521 423e 5243 97be
000002b0: b240 8dbe 2db4 ad3c c05b 1f3d a3b8 9c3d
000002c0: 79ac c1be 369a 21be 59f7 26bd 0122 0a3e
000002d0: c9fb 8ebe cae7 bfbe 2365 16be fcec 59bd
000002e0: 0a86 44be 9474 02be 5aa1 de3d 0a71 f83c
000002f0: 2f00 85be dd37 cdbd d904 a2bd d7ed a7be
00000300: f192 a53c a358 4dbe dfbc 78be 2f69 c8bd
00000310: 44de 6dbc a7d3 b13e b0a4 c3bd 61a2 823e
00000320: 336f 70bb f8c0 6f3e 0539 34be c4b0 16be
00000330: 840e 93be be89 c63c c792 9abd 96d7 5f3d
00000340: 174a 803e 6c68 a1be bc58 a43e bf36 a8bc
00000350: a7d0 21bc 655f 3a3c 28fb 4abe d21d 9bbe
00000360: ae65 95be 11a3 7f3e 4d74 95bd 0402 a43d
00000370: eafd a0bd c9b4 793e 1dff 85be 5791 71bd
00000380: d781 9b3e 8bcb 66bc e956 eabd 0d01 b33d
00000390: dc94 91be 1d06 80bd b739 9dbe 0ce7 a13e
000003a0: 5bba 27be 1b46 5cbe 66b2 a4be 4249 26bd
000003b0: 8265 c33d aec9 79be eae5 a7bd 4be6 8e3e
000003c0: 1786 15be 234e 32be 1f2a fdbd 9140 43be
000003d0: ce6a 053e b2c7 49be 2bd7 abbe 8cbc 3abd
000003e0: b64d 35be 7e6f adbe d7e4 a5be 5f6f 94be
000003f0: 88df adbe a80a 28be b466 01be b83b 813e

att_src f4 [1, 1, 32]
0.15800425 -0.23144954 -0.14633079 0.20687035 -0.22421329 -0.32407364 0.11600293 0.08217712
-0.21551049 -0.2547675 -0.2268383 0.10323398 0.29439083 -0.29157597 -0.18900284 -0.3711086
0.29433015 -0.11572815 0.41225633 -0.02262335 -0.15019742 -0.37479606 -0.23389131 -0.4030575
-0.27447042 -0.2931376 0.090974055 0.0018838859 0.008625595 0.057583738 0.2359728 0.165973
00000000: decb 213e 1c01 6dbe bdd7 15be d2d5 533e
00000010: 2b98 65be fbec a5be f292 ed3d 7a4c a83d
00000020: c8ae 5cbe e370 82be 4d48 68be 566c d33d
00000030: 65ba 963e 7249 95be f689 41be f201 bebe
00000040: 71b2 963e e102 edbd 4313 d33e 9b54 b9bc
00000050: 5acd 19be 45e5 bfbe 3481 6fbe 8d5d cebe
00000060: 6387 8cbe 2216 96be 9b50 ba3d b9ec f63a
00000070: 5e52 0d3c eddc 6b3d dba2 713e d3f4 293e

att_dst f4 [1, 1, 32]
0.35501906 -0.13667126 0.41780138 0.13776012 -0.10223843 -0.39658055 -0.107583545 -0.045489702
0.2040862 -0.083250634 -0.39679098 0.16577145 -0.29349172 -0.39131433 0.22006205 0.123840705
0.22460029 0.35685536 -0.38708752 -0.053697836 0.22701965 0.071199805 -0.4347246 0.36182126
0.07442366 0.0801758 -0.12888192 -0.1793575 0.053196333 -0.35611215 -0.16365479 -0.06952532
00000000: 0fc5 b53e 8df3 0bbe 10ea d53e fd10 0d3e
00000010: 6262 d1bd 9b0c cbbe c354 dcbd 6953 3abd
00000020: f9fb 503e 4f7f aabd 3028 cbbe febf 293e
00000030: 8c44 96be 5a5a c8be f257 613e 32a0 fd3d
00000040: 9efd 653e bfb5 b63e 5630 c6be 43f2 5bbd
00000050: d777 683e 34d1 913d 3994 debe a340 b93e
00000060: 6f6b 983d 3633 a43d 9ff9 03be 7ea9 37be
00000070: 66e4 593d 5554 b6be 1f95 27be 4a63 8ebd

bias f4 [32]
0.033741027 0.022070704 0.040222313 -0.018768378 0.06717848 0.030264799 -0.09891833 0.004487567
-0.037537664 0.037022512 0.15310507 -0.02365869 0.06314222 -0.02768464 0.040879324 -0.12149941
-0.051080167 0.05959142 0.03414933 0.0061344737 -0.06465289 -0.066878855 0.006967506 0.021897335
0.10583748 -0.061818093 0.10601425 0.13447139 0.008994705 0.0016349073 -0.18991168 0.013755049
00000000: 0834 0a3d 9fcd b43c 27c0 243d 24c0 99bc
00000010: df94 893d e2ed f73c b295 cabd 710c 933b
00000020: 18c1 19bd eba4 173d 93c7 1c3e decf c1bc
00000030: b550 813d e6ca e2bc 1471 273d afd4 f8bd
00000040: 7039 51bd 2216 743d 2be0 0b3d b203 c93b
00000050: bc68 84bd c8f7 88bd ad4f e43b 0a62 b33c
00000060: 52c1 d83d f834 7dbd 001e d93d deb2 093e
00000070: 875e 133c 634a d63a 3578 42be db5c 613c

weight f4 [32, 32]
0.14208129 0.17259784 0.16520086 -0.0012607982 0.10881481 -0.22936763 0.12925328 -0.10090377
-0.18797874 -0.19720966 -0.20053414 -0.04103033 0.04809213 -0.15530632 -0.32542616 0.28461233
0.2739682 -0.1553476 0.21159902 -0.2542527 -0.21024047 0.3010955 -0.0049109906 -0.09427201
-0.11245812 -0.15556602 -0.14063853 0.28277475 -0.26084515 -0.2393612 -0.104604974 -0.048208185
0.15693155 0.043085873 -0.08923907 0.19300896 0.24894248 -0.16691393 -0.26791024 0.080954134
0.29181093 -0.100692265 -0.104349144 0.14766602 -0.26809084 0.0051716664 -0.268281 0.020018667
-0.27483675 0.032707978 0.26150593 0.021310842 -0.07791313 0.014211494 0.12760368 0.30864865
-0.16948178 0.19366221 -0.23646429 0.3164894 -0.1101968 -0.051455494 0.23338924 0.18465148
-0.22406936 -0.013321884 -0.29661557 0.017895212 -0.26204264 -0.2367028 0.17398499 -0.12642606
-0.13273066 -0.06432083 -0.2812835 0.28014097 0.0023401796 -0.043388683 -0.11185232 0.14958236
-0.24769798 0.1099615 -0.21292432 -0.11405476 -0.18144608 -0.1991941 -0.02858541 -0.20408091
-0.20370576 -0.28286475 0.09877455 -0.22272049 -0.014159523 -0.080308504 -0.22994028 -0.20689003
0.10127435 0.21210209 -0.08911212 0.2543763 0.10203205 -0.23752177 0.08200143 -0.25925618
-0.1698942 0.30503258 0.28590727 -0.16157997 0.026360428 -0.30533302 -0.17515874 0.07342916
-0.27577785 -0.08497663 -0.151651 -0.23736425 0.1516134 -0.2058623 0.25662714 0.046179626
0.09140158 -0.22840576 -0.006202034 0.2695323 -0.16806908 -0.10372451 -0.12715061 -0.06097727
0.13727042 0.16974384 -0.13861884 0.2255006 -0.26221496 -0.083555445 -0.03376919 -0.04834692
-0.034035992 0.08735483 0.11673929 -0.25973684 0.14130248 0.061218113 0.21421571 -0.04972322
-0.28564623 0.03772455 -0.13668713 -0.18228537 -0.042946115 0.23191623 -0.23613472 -0.10695117
-0.29285446 -0.03675623 0.090624176 0.1592317 -0.07450058 0.1926418 0.14865479 0.16424957
-0.25206253 0.21536852 -0.07878801 0.23408866 0.22652394 -0.25403818 0.043808095 -0.0047105947
-0.051791146 0.20911421 0.12385507 -0.30338466 0.22081041 0.081543855 0.10727305 0.04727505
0.020598708 -0.1802221 0.060560763 0.012828633 0.1257612 -0.07249993 0.23230217 -0.0026823408
-0.0432159 -0.10064339 0.29194987 -0.0003052174 -0.09839033 -0.13362342 0.2961179 -0.26017943
-0.0922155 0.0019426757 0.1767857 0.037058298 -0.1226238 -0.17923886 0.045413528 -0.19096527
0.015970118 0.051971015 -0.25307763 0.3037249 -0.27471524 -0.18899025 -0.3160157 0.3904044
0.11098505 0.13504182 -0.3458965 0.14793698 -0.17485298 -0.27643162 -0.1740032 0.031885922
-0.24844448 0.26790407 0.054137312 0.27419338 -0.027548421 0.23403785 0.13365531 0.16954759
0.15490101 -0.2517147 0.26002598 -0.22642983 -0.13496575 -0.0668318 0.07525606 0.20367645
-0.14903904 -0.04884499 -0.08601203 0.15970701 0.03554296 -0.21479821 -0.29181838 0.17128494
-0.046194073 0.27511358 0.034019537 0.2604166 0.19754626 -0.29649383 0.26346463 -0.3050361
-0.2355651 0.20855826 0.21441753 0.016099544 0.24453449 0.29749596 0.28835487 -0.08592134
00000000: c27d 113e 7dbd 303e 6a2a 293e 5e41 a5ba
00000010: 4dda de3d 59df 6abe f95a 043e a3a6 cebd
00000020: 807d 40be 54f1 49be d258 4dbe 6b0f 28bd
00000030: 41fc 443d 9f08 1fbe 429e a6be b5b8 913e
00000040: 8f45 8c3e 7113 1fbe 6aad 583e 692d 82be
00000050: 4749 57be 3029 9a3e 60ec a0bb af11 c1bd
00000060: 7150 e6bd b34c 1fbe 8c03 10be dac7 903e
00000070: 7f8d 85be 1a1b 75be 223b d6bd f275 45bd
00000080: aab2 203e d07a 303d f9c2 b6bd 24a4 453e
00000090: c7ea 7e3e 7ceb 2abe 882b 89be 48cb a53d
000000a0: 3e68 953e bf37 cebd 01b5 d5bd c335 173e
000000b0: 3443 89be 1577 a93b 215c 89be 30fe a33c
000000c0: 67b7 8cbe cdf8 053d 1be4 853e 1394 ae3c
000000d0: eb90 9fbd 53d7 683c 8aaa 023e 3207 9e3e
000000e0: a28c 2dbe 634f 463e b223 72be e60a a23e
000000f0: dcae e1bd ffc2 52bd 97fd 6e3e 4715 3d3e
00000100: 7072 65be 0844 5abc ffdd 97be fb98 923c
00000110: 742a 86be 3862 72be 1f29 323e d575 01be
00000120: 8cea 07be a4ba 83bd 6404 90be a36e 8f3e
00000130: b35d 193b 55b8 31bd d412 e5bd 1e2c 193e
00000140: 8aa4 7dbe 7f33 e13d d508 5abe 8b95 e9bd
00000150: 00cd 39be 8af9 4bbe f32b eabc 96fa 50be
00000160: 3e98 50be a6d3 90be 504a ca3d d710 64be
00000170: 58fd 67bc c978 a4bd 7775 6bbe fbda 53be
00000180: ed68 cf3d 4a31 593e 6a80 b6bd 9c3d 823e
00000190: 2ef6 d03d e838 73be 5ef0 a73d 3abd 84be
000001a0: bff8 2dbe 3b2d 9c3e 7062 923e 3875 25be
000001b0: d3f1 d73c 9c54 9cbe d05c 33be 0762 963d
000001c0: c132 8dbe 3a08 aebd 664a 1bbe 9d0f 73be
000001d0: 8b40 1b3e 91cd 52be a264 833e d926 3d3d
000001e0: c030 bb3d 33e3 69be 6f3a cbbb 2300 8a3e
000001f0: 4d1a 2cbe 846d d4bd c533 02be 4dc3 79bd
00000200: 9e90 0c3e 54d1 2d3e 19f2 0dbe a1e9 663e
00000210: 0a41 86be 1e1f abbd 9051 0abd 6c07 46bd
00000220: 5369 0bbd 17e7 b23d 0215 ef3d 3afc 84be
00000230: 99b1 103e d8bf 7a3d 5d5b 5b3e 93aa 4bbd
00000240: 3940 92be 0f85 1a3d b6f7 0bbe 04a9 3abe
00000250: 44e8 2fbd 737b 6d3e 4dcd 71be 3709 dbbd
00000260: 05f1 95be b38d 16bd 2b99 b93d a20d 233e
00000270: c393 98bd e443 453e f638 183e 0a31 283e
00000280: 570e 81be 9189 5c3e 9c5b a1bd f0b4 6f3e
00000290: e4f5 673e 4b11 82be 1e70 333d 555b 9abb
000002a0: f422 54bd 0922 563e baa7 fd3d 3c55 9bbe
000002b0: 201c 623e 7700 a73d f9b1 db3d 7ca3 413d
000002c0: 9fbe a83c 248c 38be 900e 783d 302f 523c
000002d0: 8bc7 003e d87a 94bd 9fe0 6d3e 36ca 2fbb
000002e0: 2803 31bd 1f1e cebd 747a 953e 9605 a0b9
000002f0: df80 c9bd 94d4 08be c49c 973e 3d36 85be
00000300: 7bdb bcbd 61a1 fe3a 4f07 353e 71ca 173d
00000310: 3022 fbbd 648a 37be 8903 3a3d 668c 43be
00000320: c4d3 823c 8fdf 543d 6493 81be d581 9b3e
00000330: 7aa7 8cbe a986 41be cfcc a1be 16e3 c73e
00000340: 214c e33d 6748 0a3e 5919 b1be cb7c 173e
00000350: a90c 33be 7288 8dbe e52d 32be d09a 023d
00000360: 3b68 7ebe b92a 893e 16bf 5d3d 1363 8c3e
00000370: 3aad e1bc 9ea7 6f3e f0dc 083e e29d 2d3e
00000380: 5f9e 1e3e c0e0 80be 2022 853e 39dd 67be
00000390: 7634 0abe 1cdf 88bd d91f 9a3d 8f90 503e
000003a0: b19d 18be af11 48bd 1327 b0bd 3c8a 233e
000003b0: 7f95 113d 10f4 5bbe 3869 95be 5265 2f3e
000003c0: ff35 3dbd b0db 8c3e 1258 0b3d 5355 853e
000003d0: 9149 4a3e 0ace 97be d6e4 863e b12d 9cbe
000003e0: fa37 71be 4c90 553e 4590 5b3e 31e3 833c
000003f0: 4067 7a3e 6451 983e 40a3 933e 87f7 afbd

att_src f4 [1, 1, 16]
-0.5748919 0.56875664 -0.05856012 -0.53922004 0.038362186 -0.03146252 -0.079064354 -0.45930424
0.40184292 -0.402892 0.3779742 -0.17822166 -0.3524289 0.12145988 -0.10300712 -0.4710701
00000000: 1e2c 13bf 099a 113f bddc 6fbd 530a 0abf
00000010: ab21 1d3d d8de 00bd 7eec a1bd ed29 ebbe
00000020: 5bbe cd3e dc47 cebe d685 c13e bd7f 36be
00000030: 9071 b4be f5bf f83d 66f5 d2bd 1a30 f1be

att_dst f4 [1, 1, 16]
0.14346185 0.15762255 0.44424802 -0.24850854 0.38512492 -0.36325267 -0.3740113 0.5017424
0.22272952 0.28623155 -0.24891973 -0.43221477 -0.5615927 0.5459052 0.3668618 0.47412312
00000000: aae7 123e ce67 213e 7a74 e33e 0679 7ebe
00000010: 182f c53e 41fc b9be 697e bfbe 3172 003f
00000020: 3513 643e f18c 923e d0e4 7ebe 414b ddbe
00000030: 8ac4 0fbf 71c0 0b3f 4fd5 bb3e 44c0 f23e

bias f4 [16]
-0.075192265 -0.28946134 -0.22483885 0.061042633 -0.13046056 0.4218743 -0.18384333 0.19173764
-0.07922339 0.0035270648 -0.41932842 0.021167122 -0.15804397 0.14986777 -0.07554163 -0.25692266
00000000: 67fe 99bd 4734 94be 283c 66be d707 7a3d
00000010: 7497 05be e9ff d73e 6d41 3cbe df56 443e
00000020: df3f a2bd 5426 673b 37b2 d6be ac66 ad3c
00000030: 47d6 21be f076 193e 92b5 9abd 5e8b 83be

weight f4 [16, 32]
0.1515885 -0.017209692 0.28764817 -0.3316634 0.40076396 -0.19772822 0.3041013 0.096620426
-0.21608858 -0.2931094 -0.08670448 0.18934208 -0.2237953 0.22784452 -0.1523608 0.25434187
0.06499119 -0.25845405 0.10409785 -0.0829942 0.07294844 -0.16730782 0.30860364 -0.17678365
0.26521212 -0.28986317 0.17276524 -0.18132341 0.038632084 -0.11834084 -0.23262283 0.36896178
0.13945791 0.1886251 -0.0596994 -0.11698564 -0.13147622 -0.3319022 0.113484316 0.15173014
-0.051574245 -0.310623 -0.04718752 0.24785364 0.14135367 -0.35206938 0.16400537 0.19613393
-0.12243183 -0.23411864 0.100697294 0.062291548 0.25534225 0.26206005 0.14532726 -0.124949306
0.27391294 0.24222915 0.17875788 -0.039135527 0.1336785 0.16218817 0.21535838 0.04296291
-0.114739865 -0.121259786 0.18861055 -0.12801552 -0.41526908 -0.07446919 -0.40218472 -0.34277934
0.26619408 -0.25606734 0.3550448 -0.22279856 -0.3489267 -0.03574414 0.16131839 -0.03273596
0.17712872 0.050420903 -0.26095685 0.17982702 0.009397311 -0.26356643 -0.09421311 0.12796797
-0.19342451 -0.01384892 0.16387537 0.096849464 0.1536258 -0.057132337 0.07681933 0.071030624
-0.007861021 0.06634706 0.062482785 -0.24710883 -0.19546705 0.31540897 -0.18682835 0.24684872
0.07750028 0.13154763 -0.27733904 -0.014366361 -0.08246696 -0.32224903 0.0075279083 0.2191256
0.08008237 -0.21144573 -0.16790964 -0.06873572 -0.21844625 0.15047354 0.1561333 0.13788818
0.10888368 0.085542515 -0.3435841 0.038298935 0.182876 -0.13234672 0.22624135 0.017293975
0.17450914 -0.30379573 0.21191503 0.056956813 0.16779779 0.27220178 -0.024622226 0.22168413
0.119190365 -0.16784354 -0.19653943 0.32419065 0.1845208 0.08736853 0.028679602 -0.16120668
0.107435174 -0.16986154 0.015428093 0.045104124 -0.012142618 0.18513753 -0.28540206 -0.28313655
-0.28410378 -0.2875881 -0.29903886 -0.10278885 -0.13854557 0.24029487 -0.12583667 -0.13540274
-0.0640222 0.25114807 -0.23259048 0.11011377 0.048192915 -0.22544612 -0.1179158 0.29129928
-0.029104097 0.19430155 0.15267754 0.00047605782 0.1030324 0.19996938 0.2601968 -0.09782957
0.164037 -0.035259705 0.29569516 0.30696702 0.06271206 -0.2175457 0.031513516 0.055919908
-0.190069 -0.07039863 0.14499477 0.27080122 -0.09438302 -0.339714 0.1843583 -0.29136845
-0.134242 -0.05000357 -0.20380491 -0.03632715 0.09447981 0.30008164 0.081607565 0.09418663
-0.21183737 -0.08651161 -0.31621423 -0.2859303 -0.016807621 -0.042298563 0.11111792 -0.25022092
-0.33048347 0.045781545 -0.1442713 -0.19980215 0.21765772 0.21488173 -0.22422773 -0.103555106
0.22524245 0.11342167 -0.2865075 0.1027116 0.18987185 0.076861925 -0.047741577 -0.21389744
0.33688888 -0.10254036 0.2193046 0.22575101 -0.03214304 -0.3121843 0.2540529 0.033785526
0.31994298 -0.31008148 -0.3743553 -0.17308031 0.4081953 -0.34247634 0.15318418 0.0942136
-0.103108674 0.15937671 -0.21092314 0.19138058 -0.0017207505 0.026426848 -0.012515632 0.04799534
0.021017184 0.40932462 -0.26500934 0.34427622 -0.3665594 -0.3598136 -0.2359506 -0.06851933
00000000: 043a 1b3e 57fb 8cbc 9f46 933e c9cf a9be
00000010: ef30 cd3e 4479 4abe 2ab3 9b3e eee0 c53d
00000020: 5346 5dbe 6f12 96be 1e92 b1bd e4e2 413e
00000030: 982a 65be 1350 693e 7804 1cbe 1939 823e
00000040: 1a1a 853d 1754 84be 4131 d53d ddf8 a9bd
00000050: fe65 953d be52 2bbe 4c01 9e3e c606 35be
00000060: e2c9 873e f268 94be 5fe9 303e d8ac 39be
00000070: ad3c 1e3d af5c f2bd ae34 6ebe 8fe8 bc3e
00000080: 0ece 0e3e f026 413e 5c87 74bd 2b96 efbd
00000090: b4a1 06be 16ef a9be 776a e83d 255f 1b3e
000000a0: 843f 53bd fa09 9fbe b347 41bd 58cd 7d3e
000000b0: 04bf 103e 7042 b4be 06f1 273e 55d7 483e
000000c0: 8abd fabd ccbc 6fbe 623a ce3d 6c25 7f3d
000000d0: 38bc 823e bc2c 863e abd0 143e 6ce5 ffbd
000000e0: 513e 8c3e eb0a 783e 4e0c 373e 934c 20bd
000000f0: 04e3 083e a814 263e e886 5c3e e0f9 2f3d
00000100: bcfc eabd 0d57 f8bd 2023 413e 8016 03be
00000110: 269e d4be 4d83 98bd 28eb cdbe c680 afbe
00000120: 974a 883e 421b 83be 6fc8 b53e 4e25 64be
00000130: 85a6 b2be 7368 12bd a630 253e 2416 06bd
00000140: 3b61 353e 2686 4e3d 239c 85be 9324 383e
00000150: 2ef7 193c 2ef2 86be cef2 c0bd 090a 033e
00000160: 1311 46be 95e6 62bc f2ce 273e 0359 c63d
00000170: 1550 1d3e 9903 6abd 7453 9d3d 8178 913d
00000180: 83cb 00bc f8e0 873d f3ed 7f3d 190a 7dbe
00000190: 8428 48be 497d a13e ee4f 3fbe e9c5 7c3e
000001a0: 78b8 9e3d 6cb4 063e 62ff 8dbe e360 6bbc
000001b0: 70e4 a8bd d3fd a4be acac f63b 7662 603e
000001c0: 3a02 a43d 3b85 58be 81f0 2bbe 50c5 8cbd
000001d0: 60b0 5fbe bc15 1a3e 68e1 1f3e 8f32 0d3e
000001e0: 68fe de3d ea30 af3d 41ea afbe 58df 1c3d
000001f0: d943 3b3e e685 07be d0ab 673e 18ac 8d3c
00000200: 86b2 323e 1d8b 9bbe 4100 593e 8c4b 693d
00000210: 2fd3 2b3e 085e 8b3e 8db4 c9bc 2a01 633e
00000220: 141a f43d 2ddf 2bbe a241 49be 51fc a53e
00000230: 05f3 3c3e 46ee b23d 7cf1 ea3c 5d13 25be
00000240: f906 dc3d 2ff0 2dbe 1dc6 7c3c 1abf 383d
00000250: d5f1 46bc b194 3d3e 3820 92be 46f7 90be
00000260: 0d76 91be bf3e 93be 9f1b 99be f682 d2bd
00000270: e4de 0dbe dc0f 763e 54db 00be 04a7 0abe
00000280: 121e 83bd 7b96 803e 332c 6ebe 5483 e13d
00000290: ef65 453d 59db 66be d77d f1bd 2e25 953e
000002a0: b76b eebc fcf6 463e 8057 1c3e 6697 f939
000002b0: a702 d33d c6c4 4c3e 8438 853e df5a c8bd
000002c0: 51f9 273e 7b6c 10bd 5b65 973e c82a 9d3e
000002d0: 2e6f 803d 4dc4 5ebe 5114 013d 460c 653d
000002e0: 73a1 42be 282d 90bd 8279 143e 75a6 8a3e
000002f0: e34b c1bd feee adbe 6cc8 3c3e 3f2e 95be
00000300: bc76 09be 8bd0 4cbd 3cb2 50be c7cb 14bd
00000310: a17e c13d 4da4 993e de21 a73d ebe4 c03d
00000320: e5eb 58be 002d b1bd d5e6 a1be 7565 92be
00000330: 23b0 89bc 4241 2dbd cb91 e33d f51c 80be
00000340: 2135 a9be 6e85 3b3d dbbb 13be ef98 4cbe
00000350: aae1 5e3e f509 5c3e f49b 65be b314 d4bd
00000360: f5a5 663e 9f49 e83d 1cb1 92be 765a d23d
00000370: c46d 423e c969 9d3d ac8c 43bd ee07 5bbe
00000380: b37c ac3e ae00 d2bd 6391 603e 462b 673e
00000390: 6ca8 03bd 9fd6 9fbe 3913 823e b162 0a3d
000003a0: 91cf a33e 00c3 9ebe 7fab bfbe f73b 31be
000003b0: f9fe d03e 0f59 afbe 50dc 1c3e 0ff3 c03d
000003c0: a42a d3bd a633 233e 3cfc 57be 45f9 433e
000003d0: ce8a e1ba 1e7d d83c 5e0e 4dbc c396 443d
000003e0: 3b2c ac3c ff92 d13e 4eaf 87be f944 b03e
000003f0: acad bbbe 7d39 b8be 099d 71be dd53 8cbd

weight f4 [64, 16]
0.14025605 -0.20383556 -0.075445935 0.02664934 0.010091125 0.13056676 0.15062448 0.2399116
-0.08610514 0.16528681 -0.023128893 0.14178015 0.013756131 0.026851015 0.07862817 -0.07027404
-0.1736094 -0.28877184 0.18700323 -0.019479066 -0.20060287 0.24315694 -0.09763065 -0.037412338
0.23620297 0.07285948 -0.23937689 -0.23576881 0.102769226 -0.1763784 0.034630317 0.116775766
-0.25464925 0.032831494 0.1866513 0.120020956 -0.12897164 0.0582657 -0.01317532 -0.102289885
-0.122695126 0.17145976 -0.14759864 -0.13294826 0.08758437 0.07476371 0.19242312 -0.25188148
0.27758044 -0.020770803 0.14209299 0.13940722 -0.100929916 0.033843502 0.16852775 0.34303656
0.1380469 0.07953618 0.26306972 -0.19156027 0.034257546 0.119071074 -0.15008092 -0.07201178
-0.2336617 0.06615316 0.19243532 0.07858465 0.03445972 0.13673367 -0.059021395 0.24424715
-0.06410861 0.04672729 -0.11965524 0.17735583 -0.27607206 0.13728508 -0.12728053 0.09089838
0.04737279 -0.1364439 0.13233143 0.16445187 0.15024596 0.024547424 0.22557653 -0.19732624
0.00077425997 0.11815632 0.15201327 0.12263355 -0.0009842811 0.18025377 -0.0029149689 -0.17223036
-0.15793096 -0.0019439951 -0.06336235 0.14516622 -0.0023418947 0.10367694 -0.2659393 0.29905963
0.09901891 0.013917532 0.1654146 -0.18957794 0.14890128 0.20012434 -0.08590403 0.0024125949
-0.2172508 -0.045094028 -0.1523573 -0.06485753 0.04299483 0.096017376 -0.19168675 -0.037472602
-0.19686773 -0.067512825 -0.12795193 0.2332791 -0.12913688 0.23037812 0.13124052 -0.18542913
-0.22896984 0.008593951 -0.022822216 0.1635671 0.110438325 -0.1125733 0.2628897 0.086152166
0.08489595 0.034247853 0.16268447 0.14800262 0.016076326 -0.11633975 0.2138909 -0.20073603
0.08627833 -0.037602995 -0.0862238 0.13380894 -0.10382293 0.21609402 0.1452722 -0.028779075
0.12971236 -0.07043325 0.14551233 -0.03010433 0.071104 0.17609946 0.098168395 0.2457433
-0.12681928 -0.1437378 -0.032903843 0.1844959 0.03791239 -0.007139764 -0.13453439 0.0516557
-0.037739504 -0.016181476 -0.208361 -0.09049542 -0.12508224 0.18156038 -0.2279523 0.16160639
-0.075978234 -0.106685326 0.12316677 0.1499542 -0.1608025 0.1846129 -0.2441125 0.30950812
0.13161771 0.19781652 -0.054941256 0.031764515 -0.14453995 0.09694397 -0.17089644 -0.20842433
-0.072580986 0.06384717 0.027750507 0.046744753 0.038455367 -0.11875165 -0.03956898 0.01664178
-0.10732971 -0.1418264 -0.07452906 0.06607146 -0.17331919 0.20774703 0.1905275 0.028730815
-0.085394174 -0.15069035 -0.17900537 0.25102785 0.10946782 0.13919672 0.105406806 0.16085163
-0.21796557 0.02415228 0.14744073 0.25747657 -0.1072337 -0.12769313 0.12793027 0.07939228
0.27702102 -0.14762825 0.0026232188 0.17352833 -0.07850721 -0.19886175 0.14454177 -0.12166607
-0.30105355 -0.115783736 -0.20700239 -0.032779172 -0.17694008 0.20524417 0.14103623 -0.012262205
0.211546 -0.116609745 -0.17572919 0.17399801 0.1484912 -0.025387427 0.07359279 0.14677466
-0.31485093 0.07785517 -0.25291726 -0.1474675 0.019665282 0.020236216 0.052059054 0.024261221
00000000: 489f 0f3e 45ba 50be 6683 9abd b74f da3c
00000010: 3f55 253c 4bb3 053e 4e3d 1a3e 63ab 753e
00000020: e457 b0bd f240 293e ce78 bdbc d12e 113e
00000030: 6561 613c a9f6 db3c ce07 a13d d6eb 8fbd
00000040: aac6 31be e7d9 93be c67d 3f3e 9092 9fbc
00000050: d76a 4dbe 22fe 783e 94f2 c7bd ae3d 19bd
00000060: 31df 713e 5a37 953d 371f 75be 616d 71be
00000070: ac78 d23d 8a9c 34be 85d8 0d3d 2228 ef3d
00000080: 6361 82be 517a 063d 8521 3f3e 8ccd f53d
00000090: 2411 04be 04a8 6e3d 4cdd 57bc 5c7d d1bd
000000a0: 9547 fbbd 2693 2f3e 1924 17be 9723 08be
000000b0: 6f5f b33d b71d 993d 910a 453e 9cf6 80be
000000c0: 061f 8e3e 8827 aabc d380 113e c4c0 0e3e
000000d0: 58b4 cebd 7c9f 0a3d 8a92 2c3e 7da2 af3e
000000e0: 2b5c 0d3e dde3 a23d 13b1 863e 6028 44be
000000f0: a451 0c3d 89db f33d d0ae 19be ea7a 93bd
00000100: 0345 6fbe 4f7b 873d c40d 453e fdf0 a03d
00000110: a325 0d3d e903 0c3e 6bc0 71bd ed1b 7a3e
00000120: 604b 83bd 1d65 3f3d ce0d f5bd c49c 353e
00000130: 5159 8dbe 7694 0c3e d455 02be ee28 ba3d
00000140: f809 423d f3b7 0bbe e481 073e 1266 283e
00000150: 14da 193e ae17 c93c 89fd 663e e40f 4abe
00000160: b5f7 4a3a f1fb f13d 5ea9 1b3e 4c27 fb3d
00000170: fe02 81ba 7294 383e 1009 3fbb 285d 30be
00000180: a7b8 21be a7cd feba 1fc4 81bd 74a6 143e
00000190: 797a 19bb 9354 d43d 3229 88be 581e 993e
000001a0: 6dca ca3d 5c06 643c 7262 293e b820 42be
000001b0: 9479 183e 65ed 4c3e 74ee afbd a01c 1e3b
000001c0: fe76 5ebe 84b4 38bd 8d03 1cbe 06d4 84bd
000001d0: 591b 303d c2a4 c43d 8849 44be df7c 19bd
000001e0: b297 49be 2a44 8abd d505 03be b7e0 6e3e
000001f0: 753c 04be 3ee8 6b3e ea63 063e 22e1 3dbe
00000200: 1277 6abe a5cd 0c3c a8f5 babc 227e 273e
00000210: 7d2d e23d d58c e6bd 7b99 863e 8c70 b03d
00000220: eedd ad3d 7a47 0c3d c296 263e 008e 173e
00000230: 80b2 833c 8943 eebd 3706 5b3e bf8d 4dbe
00000240: b1b2 b03d 9905 1abd 1b96 b0bd 3605 093e
00000250: 1ea1 d4bd c047 5d3e 3cc2 143e 18c2 ebbc
00000260: 51d3 043e 4f3f 90bd 2f01 153e 5b9d f6bc
00000270: f99e 913d 6b53 343e 830c c93d 22a4 7b3e
00000280: eadc 01be 0030 13be 2ec6 06bd 7eec 3c3e
00000290: 064a 1b3d aef4 e9bb 62c3 09be ed94 533d
000002a0: bd94 1abd 048f 84bc 965c 55be aa55 b9bd
000002b0: 8f15 00be f7ea 393e 546c 69be 257c 253e
000002c0: 7a9a 9bbd d67d dabd dc3e fc3d 988d 193e
000002d0: 69a9 24be 2a0b 3d3e a1f8 79be d977 9e3e
000002e0: cbc6 063e 6a90 4a3e 150a 61bd 821b 023d
000002f0: 4802 14be 8f8a c63d 7aff 2ebe 306d 55be
00000300: 57a5 94bd 4ec2 823d 0855 e33c 6d77 3f3d
00000310: 6083 1d3d 1134 f3bd 1513 22bd 5854 883c
00000320: aecf dbbd f13a 11be b1a2 98bd 7950 873d
00000330: 967a 31be a3bb 543e a419 433e e35c eb3c
00000340: 24e3 aebd 924e 1abe 2f4d 37be b986 803e
00000350: aa30 e03d 9689 0e3e 86df d73d 4ab6 243e
00000360: 5e32 5fbe 01db c53c b4fa 163e f8d3 833e
00000370: 589d dbbd fdc1 02be 2700 033e 6b98 a23d
00000380: b3d5 8d3e dc2b 17be 4fea 2b3b 69b1 313e
00000390: 63c8 a0bd 6aa2 4bbe c202 143e 0f2c f9bd
000003a0: b123 9abe 0620 edbd 6ff8 53be 7443 06bd
000003b0: c82f 35be 872b 523e cd6b 103e 6ae7 48bc
000003c0: 849f 583e 17d1 eebd 5af2 33be 892c 323e
000003d0: 140e 183e 4bf9 cfbc d1b7 963d 194c 163e
000003e0: 2434 a1be 8872 9f3d 5f7e 81be b801 17be
000003f0: 1619 a13c 6cc6 a53c e03b 553d 78bf c63c

bias f4 [64]
0.21172228 0.21295963 -0.14612806 -0.008377357 0.17543377 -0.21705367 0.28195316 0.120315835
-0.19923156 0.28114182 -0.09202333 0.17197846 0.16297898 -0.15086104 0.02931715 0.14293995
-0.17963743 -0.081673436 0.25882965 0.2705367 0.0056667756 0.3408007 -0.17437097 0.08534825
-0.12415956 -0.2098592 -0.11881843 -0.024546726 0.29687995 0.11186528 0.3437315 0.21032041
-0.09372146 0.35762897 0.12916362 0.3376529 0.45391428 -0.0063579287 0.28371558 0.3838795
-0.17456634 -0.07807379 -0.10291214 0.343324 0.23354734 -0.31497377 -0.22579092 -0.013062255
0.21930948 0.17309617 0.24191497 0.051863484 0.306917 -0.12551932 0.2811334 0.19134544
-0.18643934 0.017851342 -0.11453479 -0.13244057 0.25346005 0.33468992 -0.1615151 0.29638946
00000000: bacd 583e 1712 5a3e 98a2 15be 2f41 09bc
00000010: e9a4 333e 5143 5ebe 2a5c 903e 2668 f63d
00000020: 5c03 4cbe d2f1 8f3e ba76 bcbd 1f1b 303e
00000030: f6e3 263e 517b 1abe 852a f03c da5e 123e
00000040: e0f2 37be 6744 a7bd 5285 843e c983 8a3e
00000050: 5cb0 b93b 6e7d ae3e 4e8e 32be 10cb ae3d
00000060: 5e47 febd 55e5 56be 1457 f3bd 3716 c9bc
00000070: a600 983e a019 e53d 93fd af3e 3c5e 573e
00000080: 09f1 bfbd 251b b73e 7843 043e d7e0 ac3e
00000090: 7467 e83e 2c56 d0bb 2b43 913e db8b c43e
000000a0: 85c1 32be 27e5 9fbd 9ac3 d2bd 2ac8 af3e
000000b0: 0927 6f3e 3e44 a1be bc35 67be 1203 56bc
000000c0: aa92 603e 1f40 313e 8fb8 773e ce6e 543d
000000d0: 3a24 9d3e 2388 00be b8f0 8f3e 0ff0 433e
000000e0: f4e9 3ebe fa3c 923c 3791 eabd 809e 07be
000000f0: 84c5 813e 7a5c ab3e 3764 25be 5cc0 973e

weight f4 [64, 64]
0.101891086 -0.062007383 -0.08523669 0.08618357 -0.08887385 -0.07988753 0.12079069 -0.014653654
0.052808207 0.008833348 0.027979502 0.093180925 0.107136495 0.077563085 0.07708464 -0.0058539202
0.05868231 0.00061240175 -0.02694441 0.118825965 -0.08720818 0.20743608 -0.06905144 0.22635752
0.007783245 0.025827438 0.07387288 0.121700905 -0.011755911 0.10955093 0.07823559 0.073614195
0.041346695 -0.03269711 0.07301144 0.17529121 0.10989474 -0.033418473 0.027456181 0.17421223
-0.10431477 -0.043133583 0.04550919 -0.011676525 0.017280815 0.00016321443 -0.061578616 0.07422013
-0.05999202 0.11392173 0.008978878 0.01330808 0.065236315 -0.097636096 0.016940365 0.091478854
-0.037897706 0.034154337 0.014024001 -0.039519407 0.14929883 0.013087259 -0.087494545 0.16566916
0.04784135 -0.07899067 0.014284763 -0.039394155 -0.086011425 -0.08409732 -0.0892339 -0.19000576
-0.090899475 -0.15048179 0.081667535 0.004570891 -0.10756874 -0.016730398 -0.011297789 0.008767869
-0.027701924 0.06530923 -0.08714255 -0.08515443 -0.1299702 -0.22228828 0.047528084 -0.071517095
0.04870256 0.042303123 -0.04155464 0.0702885 -0.1248248 0.060839284 -0.06449007 -0.035564553
0.09585636 0.017071456 -0.06550882 -0.10842397 -0.05574673 0.005347713 -0.13193263 -0.14966577
0.06863124 -0.059805088 -0.17126042 0.010913273 0.10096188 -0.060604494 -0.057911906 -0.06939344
0.08445549 -0.050409283 -0.14868718 -0.23062065 -0.0734645 0.06792198 -0.19663522 0.0913288
0.04573252 -0.06712726 0.004053048 0.08571012 -0.28581023 0.051793493 -0.03440571 -0.3015062
-0.034816083 0.07085578 -0.0158382 0.011102009 -0.028132657 0.020692084 0.16195364 0.19111486
0.07984325 0.13967328 0.016106896 0.066928394 0.14674377 0.06524183 0.0071877963 0.14027055
0.11559194 -0.08840262 0.13569354 0.07822263 -0.06507003 0.15458782 -0.0063844454 0.34977576
0.0038673754 0.030453362 -0.060023177 0.08495713 -0.0340731 -0.029744767 0.10138259 0.06280469
-0.015118019 0.07718442 0.084783465 0.18900506 0.040045545 0.04487889 -0.023110664 0.12630382
0.10102735 0.012730623 0.0058848346 -0.006450105 0.0569029 -0.06259567 0.011008442 0.05408812
0.13148703 -0.07946319 0.02442123 0.10237932 0.165132 -0.06320074 0.037062366 -0.034947205
-0.030736713 0.13852395 0.09861514 0.09828633 0.21346857 0.14179796 0.031836696 0.16018148
-0.003181693 0.10224275 -0.03218465 0.14762779 -0.025727302 0.039466508 0.079155676 0.20785783
0.10274293 0.08711759 -0.03257215 0.08868986 0.13551539 0.06773543 0.089119844 0.16406193
0.046071697 -0.105859175 0.028540662 0.13421313 0.011219377 0.15570927 0.054435953 0.10258452
0.13156901 0.13254705 0.025328582 0.08059767 0.016355969 -0.06366185 0.08969196 0.3033284
0.049305584 0.12959525 0.08802674 0.15381125 0.13388868 0.10131673 0.070817076 0.10057654
-0.066615395 0.05716301 0.11634442 0.097273014 0.122114286 0.027171493 0.07257881 0.08414193
0.008607131 -0.026504025 0.165036 0.16388255 0.14462106 0.05614654 0.22124971 0.118502066
0.075234495 0.22289965 0.061286896 0.060523253 0.30513528 0.18742158 -0.033087168 0.2311522
00000000: 46ac d03d 74fb 7dbd 9390 aebd 0381 b03d
00000010: 7e03 b6bd 139c a3bd 1c61 f73d e115 70bc
00000020: 6b4d 583d bfb9 103c 4535 e53c a4d5 be3d
00000030: 616a db3d 65d9 9e3d 8dde 9d3d 3ed2 bfbb
00000040: dd5c 703d 9689 203a 86ba dcbc 075b f33d
00000050: 349a b2bd 206a 543e d76a 8dbd 44ca 673e
00000060: 970a ff3b 1094 d33c aa4a 973d 533e f93d
00000070: dd9b 40bc 3d5c e03d fb39 a03d 0ac3 963d
00000080: 275b 293d 68ed 05bd 0687 953d 8a7f 333e
00000090: 7e10 e13d cfe1 08bd c9eb e03c b164 323e
000000a0: fba2 d5bd d7ac 30bd d867 3a3d e54e 3fbc
000000b0: 7f90 8d3c 8a24 2b39 dc39 7cbd b900 983d
000000c0: 31ba 75bd cc4f e93d 251c 133c 220a 5a3c
000000d0: 9e9a 853d 6ff5 c7bd 85c6 8a3c 4459 bb3d
000000e0: a03a 1bbd 6be5 0b3d ecc4 653c 1adf 21bd
000000f0: cbe1 183e f16b 563c 5730 b3bd 2da5 293e
00000100: 4bf5 433d dcc5 a1bd a30a 6a3c c45b 21bd
00000110: c226 b0bd 373b acbd 43c0 b6bd df90 42be
00000120: 8129 babd e617 1abe 4f41 a73d 6ac7 953b
00000130: 004d dcbd 300e 89bc 5d1a 39bc 1ca7 0f3c
00000140: 25ef e2bc d8c0 853d cb77 b2bd 7265 aebd
00000150: e816 05be 8a9f 63be cfac 423d 8e77 92bd
00000160: 567c 473d 0a46 2d3d 3335 2abd 6bf3 8f3d
00000170: 25a4 ffbd 9d32 793d 5f13 84bd 23ac 11bd
00000180: 5750 c43d 70d9 8b3c 7d29 86bd 630d debd
00000190: af56 64bd de3b af3b 5919 07be fc41 19be
000001a0: 898e 8c3d 2ef6 74bd e45e 2fbe 96cd 323c
000001b0: 1ac5 ce3d 6b3c 78bd 0935 6dbd 261e 8ebd
000001c0: 00f7 ac3d f779 4ebd 7441 18be d227 6cbe
000001d0: 8e74 96bd ae1a 8b3d be5a 49be 980a bb3d
000001e0: 0652 3b3d 047a 89bd 6ecf 843b ca88 af3d
000001f0: b855 92be 6a25 543d 00ed 0cbd 055f 9abe
00000200: 4f9b 0ebd d61c 913d 1dbf 81bc 33e5 353c
00000210: 7576 e6bc 7282 a93c 2dd7 253e 9db3 433e
00000220: dc84 a33d 8306 0f3e 9cf2 833c c111 893d
00000230: 0044 163e 829d 853d 9b87 eb3b 15a3 0f3e
00000240: 78bb ec3d 6f0c b5bd 3ff3 0a3e 3033 a03d
00000250: 7043 85bd 454c 1e3e 9c34 d1bb cf15 b33e
00000260: cb73 7d3b 5479 f93c ddda 75bd 01fe ad3d
00000270: 3c90 0bbd 4cab f3bc ada1 cf3d bf9f 803d
00000280: 91b1 77bc dd12 9e3d f4a2 ad3d 8b8a 413e
00000290: cc06 243d edd2 373d 9352 bdbc ca55 013e
000002a0: 6de7 ce3d 1a94 503c 92d5 c03b 675b d3bb
000002b0: 0413 693d 2932 80bd c15c 343c 818b 5d3d
000002c0: 89a4 063e 99bd a2bd 080f c83c 40ac d13d
000002d0: 5d18 293e 646f 81bd b5ce 173d cd24 0fbd
000002e0: 8fcb fbbc 39d9 0d3e bcf6 c93d 584a c93d
000002f0: 8197 5a3e 7c33 113e 3267 023d 9d06 243e
00000300: f383 50bb a664 d13d 0dd4 03bd bd2b 173e
00000310: 10c2 d2bc a2a7 213d 5f1c a23d afd8 543e
00000320: e36a d23d b56a b23d 606a 05bd 08a3 b53d
00000330: 8cc4 0a3e e0b8 8a3d 7784 b63d daff 273e
00000340: adb5 3c3d b2cc d8bd 1bce e93c 2b6f 093e
00000350: 7ad1 373c 4072 1f3e 3cf8 5e3d d517 d23d
00000360: 07ba 063e 6aba 073e e37d cf3c 6410 a53d
00000370: f4fc 853c 2561 82bd 6bb0 b73d dc4d 9b3e
00000380: a7f4 493d 9eb4 043e 5d47 b43d b280 1d3e
00000390: 1d1a 093e 257f cf3d 8b08 913d 13fb cd3d
000003a0: a76d 88bd c323 6a3d fc45 ee3d 1337 c73d
000003b0: 0e17 fa3d c096 de3c 33a4 943d 9b52 ac3d
000003c0: ed04 0d3c f81e d9bc 32ff 283e d4d0 273e
000003d0: 8b17 143e eaf9 653d 498f 623e 36b1 f23d
000003e0: 8b14 9a3d ce3f 643e f807 7b3d 3be7 773d
000003f0: b13a 9c3e 71eb 3f3e 6986 07bd 2ab3 6c3e

bias f4 [64]
2.7241915e-05 -0.13020457 -4.7398964e-05 0.016812922 0.21638338 -0.04926188 -8.748475e-05 0.16481435
0.07959049 0.04585134 0.016633665 0.0834085 -0.13675666 -0.056514595 0.12771086 0.037410002
-0.00070131297 0.015840821 -0.17194216 0.07852026 -0.14180833 0.15760338 -0.00049520365 -0.00044308693
-6.862397e-05 -0.12837146 -0.0017391597 0.03906042 -0.15384437 -0.14862528 5.1398252e-05 -1.9743242e-05
-4.0731913e-05 0.1651615 -0.0490299 0.12481561 -0.122609384 -0.12659073 -8.712843e-06 0.040614296
-0.04459169 0.06257197 -8.591179e-05 0.23221733 -0.0019942413 -8.560848e-06 0.007792601 0.000109965265
-0.022904724 -0.00019565932 -0.17120385 -0.010437315 -0.0011812476 0.00024131716 0.008766302 0.15289658
0.06535549 -0.0005383289 0.09695971 -0.06878401 -0.00038839885 0.08160781 0.07836674 -0.14266768
00000000: 9185 e437 5954 05be 40ce 46b8 41bb 893c
00000010: 9b93 5d3e d3c6 49bd 0478 b7b8 18c5 283e
00000020: 5700 a33d 9dce 3b3d 5343 883c 13d2 aa3d
00000030: f009 0cbe d97b 67bd a3c6 023e 3b3b 193d
00000040: 51d8 37ba 9cc4 813c 9b11 30be 3bcf a03d
00000050: 3436 11be c862 213e 8ed0 01ba 1f4e e8b9
00000060: 37ea 8fb8 cf73 03be 84f4 e3ba d2fd 1f3d
00000070: 6189 1dbe 3a31 18be 7494 5738 4a9e a5b7
00000080: 8fd7 2ab8 1920 293e 94d3 48bd 549f ff3d
00000090: a11a fbbd 00a1 01be 602d 12b7 2d5b 263d
000000a0: c7a5 36bd bc25 803d 8b2b b4b8 61ca 6d3e
000000b0: d1b1 02bb 90a0 0fb7 1359 ff3b 279d e638
000000c0: b0a2 bbbc e629 4db9 1050 2fbe 4601 2bbc
000000d0: 18d4 9aba 150a 7d39 89a0 0f3c ec90 1c3e
000000e0: 19d9 853d a41e 0dba d092 c63d a2de 8cbd
000000f0: 03a2 cbb9 ff21 a73d be7e a03d 7a17 12be

weight f4 [1, 64]
-0.11809887 0.10500387 -0.06877253 -0.040137064 0.11582523 0.06952892 -0.1092628 0.05345195
-0.0688039 -0.11462782 -0.055256158 0.0045074318 0.036135305 0.10132324 0.06670402 -0.07659307
-0.031172996 -0.13116558 0.0075236037 -0.062690735 0.016252046 0.099498995 -0.116059095 -0.062235814
-0.07884906 0.1051521 -0.12924662 -0.11140326 0.081514515 0.03949371 -0.034207694 -0.12345982
-0.046425525 0.056466166 0.016411234 0.09539675 0.053608328 -0.0014882737 -0.106026135 -0.073305875
0.09623115 -0.046160497 -0.09156589 0.107561804 -0.05425872 -0.08114702 -0.058062732 -0.025302932
0.042415947 -0.12063296 0.090797335 0.020963646 -0.054179784 -0.047616217 -0.031921905 0.075517096
0.033377673 -0.062974505 -0.089912385 0.020055363 -0.07853876 -0.076901786 -0.025897611 -0.0014223692
00000000: d2dd f1bd 450c d73d 9dd8 8cbd c366 24bd
00000010: c735 ed3d 2e65 8e3d 2dc5 dfbd 6ff0 5a3d
00000020: 0fe9 8cbd fec1 eabd 4854 62bd 14b3 933b
00000030: 9d02 143d 8f82 cf3d 1e9c 883d d4dc 9cbd
00000040: 835e ffbc 4550 06be 9088 f63b 0064 80bd
00000050: 0323 853c 21c6 cb3d 64b0 edbd fbea 7ebd
00000060: 9e7b a1bd fc59 d73d 3a59 04be 6427 e4bd
00000070: 15f1 a63d 28c4 213d 5e1d 0cbd 81d8 fcbd
00000080: b128 3ebd 1149 673d da70 863c 5f5f c33d
00000090: 6894 5b3d 2e12 c3ba 3b24 d9bd 6421 96bd
000000a0: d614 c53d ca12 3dbd e686 bbbd 5d49 dc3d
000000b0: 643e 5ebd 6930 a6bd 30d3 6dbd 1848 cfbc
000000c0: 58bc 2d3d 6a0e f7bd f4f3 b93d f4bb ab3c
000000d0: 9feb 5dbd 3909 43bd 8bc0 02bd b5a8 9a3d
000000e0: 07b7 083d c7f8 80bd fc23 b8bd 254b a43c
000000f0: eed8 a0bd af7e 9dbd 3a27 d4bc ca6e baba
